params: {'units': 128, 'dropout': 0.3, 'layers': 2, 'batch_size': 512, 'epochs': 5, 'lr': 0.001}
Model: "BinaryGRU"
_________________________________________________________________
 Layer (type)                Output Shape              Param #   
=================================================================
 embedding (Embedding)       (None, 250, 100)          6000000   
                                                                 
 gru (GRU)                   (None, 250, 128)          88320     
                                                                 
 dropout (Dropout)           (None, 250, 128)          0         
                                                                 
 layer_normalization (Layer  (None, 250, 128)          256       
 Normalization)                                                  
                                                                 
 gru_1 (GRU)                 (None, 128)               99072     
                                                                 
 dropout_1 (Dropout)         (None, 128)               0         
                                                                 
 layer_normalization_1 (Lay  (None, 128)               256       
 erNormalization)                                                
                                                                 
 dense (Dense)               (None, 20)                2580      
                                                                 
=================================================================
Total params: 6190484 (23.61 MB)
Trainable params: 6190484 (23.61 MB)
Non-trainable params: 0 (0.00 Byte)
_________________________________________________________________
Predict time: 21.07762122154236
Accuracy: 0.2939204808136847
Hamming Score: 0.9317007628294036
…
