Loaded from rank_gru_0.keras
params: {'units': 128, 'dropout': 0.2, 'layers': 2, 'batch_size': 256, 'epochs': 3, 'lr': 0.001}
Model: "sequential"
_________________________________________________________________
 Layer (type)                Output Shape              Param #   
=================================================================
 embedding (Embedding)       (None, 250, 100)          6000000   
                                                                 
 spatial_dropout1d (Spatial  (None, 250, 100)          0         
 Dropout1D)                                                      
                                                                 
 gru (GRU)                   (None, 250, 128)          88320     
                                                                 
 dropout (Dropout)           (None, 250, 128)          0         
                                                                 
 layer_normalization (Layer  (None, 250, 128)          256       
 Normalization)                                                  
                                                                 
 gru_1 (GRU)                 (None, 128)               99072     
                                                                 
 dropout_1 (Dropout)         (None, 128)               0         
                                                                 
 layer_normalization_1 (Lay  (None, 128)               256       
 erNormalization)                                                
                                                                 
 dense (Dense)               (None, 20)                2580      
                                                                 
=================================================================
Total params: 6190484 (23.61 MB)
Trainable params: 6190484 (23.61 MB)
Non-trainable params: 0 (0.00 Byte)
_________________________________________________________________
Predict time: 208.91669702529907
Accuracy: 0.23898135305902296
Hamming Score: 0.9245540530127909
…
